task-5/FFNN_modified_satisfying.pth (torch_old, 283320 bytes, 5 tensors)

fc1.weight f4 [180, 300]
0.003040439 -0.018465608 -0.053283148 0.01949025 0.04981577 -0.008465618 -0.0012671805 0.024008254
0.011599117 0.023887457 -0.030029215 0.0017747624 -0.004579977 0.049494814 0.01576124 0.01574993
-0.017128633 0.026508613 0.038817637 0.022501247 0.021728022 0.057056475 -0.055795487 -0.023716101
-0.011889563 -0.017595304 -0.009001393 0.02063327 0.0047807815 0.020796418 0.04233935 0.041250657
0.046611812 -0.026491499 0.04135874 0.044104867 -0.045494106 -0.013799423 0.025690285 -0.05691827
-0.04458796 -0.018108975 0.056534138 -0.021336485 0.034737535 -0.007772227 0.047660768 -0.056000937
0.039317716 -0.034687974 -0.0010143125 -0.0003232044 -0.01670617 0.014859659 -0.022200996 -0.035654273
-0.0066249296 0.047879517 -0.029565683 -0.030214326 -0.012642075 0.057458356 0.034655306 -0.015165298
0.04487799 -0.003625513 -0.04124754 -0.016351992 0.055005368 0.018634036 -0.022798812 -0.030336067
-0.03346909 -0.037286032 -0.04449226 -0.019193599 -0.025660535 -0.049164783 0.054039527 0.0048148464
0.006780617 -0.047833685 -0.01071388 -0.048812397 -0.052846484 -0.018303405 -0.021479668 0.031055061
0.004748776 -0.014270821 0.054840703 -0.046076152 0.05535507 0.043491818 0.01792394 0.023803974
-0.013449795 -0.055922568 0.03652749 0.05691146 -0.019628795 -0.016142445 0.011257095 -0.017344808
0.02393177 -0.033341292 -0.047887318 -0.033278424 0.056618262 0.009085153 0.033214845 -0.017476633
0.048497654 0.012314928 0.027104607 0.015452996 -0.026251672 0.05415418 -0.009325876 0.0003860334
-0.039000448 0.03698138 -0.0006154951 0.0026797194 -0.057000805 -0.05019259 0.019056147 -0.019072525
-0.012566313 0.03385646 0.017105542 -0.043673836 0.0042237514 0.024505898 0.019615667 -0.046953075
0.021016432 -0.025731783 0.007481402 0.050405446 -0.005072584 0.013284207 0.015299829 0.044205714
0.056950666 0.0025851384 -0.020725401 -0.03328406 -0.023761472 0.029775416 0.042031165 -0.0033552672
0.03467453 0.000407023 -0.025325652 -0.05802655 -0.041733477 0.021486863 0.033787586 -0.0045966874
-0.048978634 0.016243452 -0.024782583 -0.03006577 -0.019732945 -0.013471918 -0.007918224 0.022864517
-0.0038122234 -0.039045013 -0.012493884 0.019207489 -0.00034275535 0.021592872 -0.005426681 -0.023083262
-0.053629253 0.038476452 0.029557077 -0.01800073 -0.0028111876 0.049031954 0.034618508 0.047062203
0.017875215 0.028101683 0.02599542 -0.058025423 -0.008645476 0.038357913 -0.014578398 -0.04338116
0.044624608 0.03871319 0.02908745 0.019702002 -0.034417674 -0.025728816 -0.03040535 -0.05168643
-0.032016397 0.047510333 0.05037446 0.008305399 -0.020187274 0.05736705 0.022233851 -0.048823263
0.0063507175 0.03787413 0.050358847 -0.0014378307 0.04345698 0.037228066 0.047174122 0.0092060175
0.0043600462 -0.043964222 -0.008095427 -0.0061447797 0.034697093 0.05557257 0.0041646636 -0.04744159
0.0069037816 0.057021774 0.03391479 -0.0073326 -0.028879723 0.04595194 -0.0082739005 -0.015147524
0.037412003 -0.030043898 -0.015104016 0.05349196 -0.0482355 -0.035833117 0.033718668 0.028542021
-0.04495979 -0.048583217 0.007816968 -0.031859163 0.05203046 0.03211272 0.04514876 -0.026490258
0.019293841 -0.0035830468 -0.02421605 0.0028823575 -0.05090874 0.006572578 0.0051037273 0.031172466
00000000: 1a42 473b 3045 97bc 6e3f 5abd 04aa 9f3c
00000010: 9f0b 4c3d 60b3 0abc 8617 a6ba f5ac c43c
00000020: 390a 3e3c a1af c33c d4ff f5bc 259f e83a
00000030: a213 96bb 13bb 4a3d b71d 813c ff05 813c
00000040: 5951 8cbc 9728 d93c 3eff 1e3d 8954 b83c
00000050: f7fe b13c 0db4 693d cf89 64bd 4548 c2bc
00000060: 71cc 42bc 0724 90bc 947a 13bc 1a07 a93c
00000070: 1aa8 9c3b 405d aa3c 076c 2d3d 73f6 283d
00000080: 07ec 3e3d b304 d9bc c867 293d 4ea7 343d
00000090: 0758 3abd fa16 62bc 6f74 d23c 2223 69bd
000000a0: dda1 36bd 4659 94bc 5790 673d dac9 aebc
000000b0: f248 0e3d 2aae febb f037 433d 3d61 65bd
000000c0: 9d0b 213d fa14 0ebd aef2 84ba c373 a9b9
000000d0: 61db 88bc ed75 733c ddde b5bc 370a 12bd
000000e0: f015 d9bb 501d 443d bb33 f2bc 0984 f7bc
000000f0: b520 4fbc 7459 6b3d b9f2 0d3d df77 78bc
00000100: fcd1 373d 049a 6dbb 2ef3 28bd 9df4 85bc
00000110: 4f4d 613d 68a6 983c 93c4 babc 5883 f8bc
00000120: e216 09bd 3db9 18bd 843d 36bd e53b 9dbc
00000130: 0b36 d2bc 0361 49bd 8d58 5d3d dcc5 9d3b
00000140: f02f de3b 41ed 43bd 4589 2fbc 82ef 47bd
00000150: 8e75 58bd 06f1 95bc 21f6 afbc 2f67 fe3c
00000160: 9f9b 9b3b 29d0 69bc a5a0 603d 59ba 3cbd
00000170: ffbb 623d 7a24 323d 3ad5 923c 8d00 c33c
00000180: 875c 5cbc 100f 65bd d99d 153d fe1b 693d
00000190: 91cc a0bc 293d 84bc ae6f 383c b316 8ebc
000001a0: 8f0c c43c e190 08bd 7e25 44bd f54e 08bd
000001b0: 8de8 673d e5d9 143c 4a0c 083d 282b 8fbc
000001c0: 7aa5 463d 8dc4 493c 7b0a de3c 902e 7d3c
000001d0: bf0d d7bc c6d0 5d3d 8fcb 18bc 8764 ca39
000001e0: efbe 1fbd ca79 173d 2d59 21ba 3b9e 2f3b
000001f0: ad79 69bd bf96 4dbd a31b 9c3c fc3d 9cbc
00000200: f0e2 4dbc 12ad 0a3d ec20 8c3c 56e3 32bd
00000210: 6567 8a3b 98c0 c83c 09b1 a03c de51 40bd
00000220: a72a ac3c 76cb d2bc 8c26 f53b f175 4e3d
00000230: eb37 a6bb 01a6 593c 22ac 7a3c 0d11 353d
00000240: 1a45 693d 6d6b 293b 51c8 a9bc de54 08bd
00000250: 6ba7 c2bc 93eb f33c df28 2c3d 0be4 5bbb
00000260: e106 0e3d b465 d539 be77 cfbc 3fad 6dbd
00000270: b9f0 2abd 3805 b03c da64 0a3d cf9f 96bb
00000280: d29d 48bd fd10 853c d804 cbbc 7d4c f6bc
00000290: fca6 a1bc 52b9 5cbc 70bb 01bc 5e4e bb3c
000002a0: 7fd6 79bb aaed 1fbd 26b3 4cbc 0659 9d3c
000002b0: d8b3 b3b9 89e3 b03c 4dd2 b1bb 1c19 bdbc
000002c0: 59aa 5bbd 7c99 1d3d af21 f23c 4476 93bc
000002d0: e73b 38bb bbd5 483d 23cc 0d3d 4cc4 403d
000002e0: 0b6f 923c 8035 e63c 59f4 d43c 11ac 6dbd
000002f0: c1a5 0dbc 301d 1d3d 3cda 6ebc 71b0 31bd
00000300: 4bc8 363d b991 1e3d ce48 ee3c 1866 a13c
00000310: 8cf9 0cbd 3dc5 d2bc a414 f9bc 26b5 53bd
00000320: a023 03bd 329a 423d 7355 4e3d 5e13 083c
00000330: c85f a5bc b6f9 6a3d c423 b63c e7fa 47bd
00000340: ae19 d03b e721 1b3d 1445 4e3d 9875 bcba
00000350: f2ff 313d 757c 183d a739 413d d6d4 163c
00000360: b8de 8e3b d413 34bd afa2 04bc 265a c9bb
00000370: 8a1e 0e3d 10a0 633d bb77 883b 1d52 42bd
00000380: 1e39 e23b aa8f 693d 3cea 0a3d 4f46 f0bb
00000390: 2b95 ecbc 1a38 3c3d 418f 07bc 522d 78bc
000003a0: 543d 193d 9f1e f6bc d676 77bc 631a 5b3d
000003b0: 9692 45bd bfc5 12bd 961c 0a3d f5d0 e93c
000003c0: c227 38bd 32ff 46bd bd12 003c c17e 02bd
000003d0: e41d 553d a188 033d e8ed 383d 1902 d9bc
000003e0: 1e0e 9e3c 8dd1 6abb bd60 c6bc efe5 3c3b
000003f0: af85 50bd c85e d73b 2b3d a73b 665d ff3c

fc1.bias f4 [180]
0.034050807 0.040647745 0.04731951 0.037513178 0.031453576 0.045737386 0.019762548 -0.008068321
0.015074449 -0.012733879 -0.04395779 0.044645198 0.012983856 0.04111263 -0.029697876 -0.004378273
0.0074489187 0.036125246 -0.07615683 -0.001018194 0.0060955747 0.0563748 0.026211925 0.0035668917
0.036681343 0.04217783 -0.04966861 0.04425566 0.0016690567 0.056010827 -0.022624964 -0.012119527
0.014215039 -0.025197532 0.029439533 -0.015202068 -0.015621209 0.049195208 -0.035637524 0.016337559
0.01675818 0.029452218 0.039036006 -0.045142844 -0.043885913 -0.018952357 0.042512614 -0.009480743
0.024987105 0.05625731 -0.04935081 -0.072133064 -0.051476255 -0.004703006 -0.03476331 -0.0048463494
0.039843448 0.024169305 0.04542801 0.041630544 0.016006362 0.028457459 0.03840514 0.04133003
0.008732708 -0.030520167 -0.014198292 -0.01664672 -0.044834137 0.028070917 -0.010348047 -0.039908394
-0.041157994 -0.04550664 0.01290496 0.002702467 0.04066231 0.04035343 -0.05366452 0.033040583
-0.024552671 0.065330155 0.05763573 0.026914675 -0.030525485 -0.026049118 -0.05487166 0.01840815
-0.012236434 0.0117202755 -0.014407366 0.052357387 -0.02656549 0.016249102 -0.0015129818 -0.021739863
-0.034992013 -0.020769488 0.031040229 0.02892878 0.043123096 0.015208377 -0.028230108 -0.005945673
-0.036070958 -0.0225265 0.0046711066 -0.041246787 -0.07903193 0.036306422 -0.03998795 0.044288352
0.011645338 -0.038603563 -0.004026494 0.020591462 0.030569775 -0.04871259 -0.012169661 0.038116615
-0.048062496 0.041396815 -0.054887354 0.005944284 -0.024677638 0.022951929 -0.0013343665 0.030733986
-0.0015493425 -0.038159054 0.0431436 -0.053900972 0.0044699432 0.033146102 -0.046534862 0.045766152
-0.046546787 -0.05546275 -0.020355145 0.053847518 0.05524056 0.023848685 -0.0033238865 -0.043780133
0.00080080796 0.035591327 0.045752887 -0.055849705 -0.053159855 0.04953625 -0.0069762655 0.017973304
-0.017080853 -0.04469521 0.0510031 0.0011447354 0.009916249 0.006999391 0.008164175 -0.05091902
0.02656753 0.02391226 -0.060889956 -0.05483232 -0.008699853 -0.053784527 0.0019701314 -0.039113656
0.03603866 0.01552098 0.052569203 -0.01376802 0.010622859 -0.07653532 -0.0063949954 -0.0086047705
-0.013746372 -0.040062476 0.025076667 0.053048287
00000000: dc78 0b3d 407e 263d 1ad2 413d 6ba7 193d
00000010: 77d5 003d 2057 3b3d 11e5 a13c fe30 04bc
00000020: d2fa 763c c2a1 50bc 150d 34bd e2dd 363d
00000030: 3dba 543c b865 283d f648 f3bc 9e77 8fbb
00000040: 0f16 f43b 11f8 133d 1df8 9bbd ec74 85ba
00000050: 63bd c73b 43e9 663d 64ba d63c 83c2 693b
00000060: 2d3f 163d a9c2 2c3d 5071 4bbd 6c45 353d
00000070: 40c4 da3a 9c6b 653d fd57 b9bc fb90 46bc
00000080: 32e6 683c 0e6b cebc 2d2b f13c 1812 79bc
00000090: 19f0 7fbc ea80 493d a7f8 11bd 58d6 853c
000000a0: 7348 893c c745 f13c 38e4 1f3d b4e7 38bd
000000b0: b7c1 33bd f941 9bbc b521 2e3d 1e55 1bbc
000000c0: c2b1 cc3c 116e 663d 1324 4abd 80ba 93bd
000000d0: c4d8 52bd ac1b 9abb f963 0ebd 20ce 9ebb
000000e0: e232 233d b5fe c53c b912 3a3d ca84 2a3d
000000f0: c61f 833c 9e1f e93c b54e 1d3d ad49 293d
00000100: a213 0f3c 6e05 fabc f49f 68bc b45e 88bc
00000110: 00a4 37bd fbf4 e53c db8a 29bc fc76 23bd
00000120: 4995 28bd 2c65 3abd 536f 533c df1b 313b
00000130: 868d 263d a349 253d 54cf 5bbd 9055 073d
00000140: af22 c9bc d1cb 853d 7113 6c3d 2a7c dc3c
00000150: 9510 fabc f664 d5bc 1bc1 60bd b0cc 963c
00000160: 537b 48bc 6606 403c df0c 6cbc b374 563d
00000170: df9f d9bc d61c 853c 3f4f c6ba cc17 b2bc
00000180: c953 0fbd c624 aabc 1448 fe3c 0dfc ec3c
00000190: d8a1 303d 8e2c 793c d442 e7bc ecd3 c2bb
000001a0: 24bf 13bd 7f89 b8bc 1510 993b 64f2 28bd
000001b0: 7edb a1bd 0bb6 143d 68ca 23bd b467 353d
000001c0: 16cc 3e3c c51e 1ebd aef0 83bb 6daf a83c
000001d0: 776d fa3c da86 47bd 4263 47bc 2b20 1c3d
000001e0: 2edd 44bd b58f 293d 90d1 60bd 45c8 c23b
000001f0: c228 cabc af05 bc3c e9e5 aeba d7c5 fb3c
00000200: 4f13 cbba ab4c 1cbd 58b7 303d 44c7 5cbd
00000210: 9a78 923b 35c4 073d 579b 3ebd 4a75 3b3d
00000220: d8a7 3ebd e92c 63bd d5bf a6bc 378f 5c3d
00000230: ed43 623d 515e c33c 90d5 59bb cc52 33bd
00000240: 50ed 513a 36c8 113d 6167 3b3d a9c2 64bd
00000250: 26be 59bd 86e6 4a3d 2899 e4bb c03c 933c
00000260: 25ed 8bbc 5312 37bd a0e8 503d f20a 963a
00000270: c377 223c 265b e53b 08c3 053c 7690 50bd
00000280: 26a4 d93c a5e3 c33c bf67 79bd db97 60bd
00000290: d489 0ebc 2a4d 5cbd 521d 013b a435 20bd
000002a0: 469d 133d b54b 7e3c ce52 573d 4393 61bc
000002b0: 800b 2e3c 8dbe 9cbd 1c8d d1bb 06fb 0cbc
000002c0: 7738 61bc 8d18 24bd 956d cd3c 2949 593d

fc2.weight f4 [90, 180]
0.010993981 -0.005119504 -0.034871776 0.046984818 -0.041787125 0.030821128 -0.08714442 0.004569086
-0.033604532 0.011371918 0.06262946 0.024607733 -0.02606627 0.03768991 0.08052624 -0.031688627
0.010137204 -0.043201994 0.06885295 -0.008791923 0.071009636 -0.022785498 -0.060026597 0.015552981
-0.01677579 -0.04881564 -0.018776268 -0.0367969 -0.027532058 0.06396753 -0.028738307 0.004538702
0.053152654 0.08039767 -0.018246962 0.05513607 -0.02078797 0.0024811358 -0.047714885 -0.023742817
0.008812369 -0.041692708 0.038763497 -0.027019633 -0.039485965 -0.023932228 0.049298543 0.053204477
-0.05350136 0.008907988 0.07173843 0.026772168 0.028245779 -0.027942995 -0.022419326 -0.022820655
-0.040217232 0.014272274 -0.026903762 0.013538017 0.07782779 0.03683532 -0.060952116 0.023594934
0.029909292 -0.05979344 0.07531756 -0.0119097065 -0.05144564 -0.0009470012 0.04428809 -0.033658154
-0.06673724 -0.010378204 0.011431984 -0.046326194 0.02895658 -0.010517106 0.041219436 -0.032172002
0.009906812 0.07959344 0.032480992 0.09613879 -0.058975272 0.016182562 -0.053771112 -0.05913153
0.0012692753 -0.031373687 -0.059282824 -0.07178955 -0.029699812 -0.007434328 -0.015309156 -0.036025938
-0.01835801 0.047949508 -0.038250793 -0.049825553 -0.09275774 0.0778988 0.035456937 0.017270213
-0.0064102495 0.0756124 0.006350601 -0.041994892 0.124673344 0.06949669 0.03756593 0.011445114
0.005587046 0.03724191 0.04861642 0.023240771 0.021983389 -0.002554852 0.051489715 -0.045508668
-0.022417402 -0.05496677 0.025582545 0.020849586 0.037682302 0.029048309 0.07397515 0.041124836
-0.01666785 0.088867694 0.06991447 0.07460499 0.06633996 -0.016710391 -0.023721324 0.0024329377
-0.025186682 0.061110888 0.07228642 -0.021264678 0.0071539995 -0.071044944 -0.016605852 -0.063760996
0.04982201 0.02518206 -0.04387806 -0.036738463 -0.034294564 0.01749755 0.0078025255 -0.038288254
0.055240545 -0.04588075 0.044605244 -0.0065491586 -0.06981996 0.012882797 -0.035076812 -0.008858718
-0.01524874 -0.042551395 -0.057913058 -0.0038189543 0.0468919 0.03958881 0.030320363 0.010189026
0.07067252 0.026312185 0.05496133 0.06595497 0.012486321 0.047351815 -0.056512114 -0.024516365
0.03175766 -0.017181672 -0.03779707 -0.04089732 0.068034425 0.07410675 -0.03759195 0.023142623
-0.0024619873 0.02827132 -0.036059346 -0.06098638 0.024922343 -0.028426277 -0.0072297216 -0.034668997
0.066444546 -0.056050353 0.121919826 -0.07386914 -0.04673576 0.02309629 0.10839205 0.04858797
-0.01044218 0.040185228 0.058679983 0.05586329 0.020585895 0.005382444 0.00742428 -0.031542804
-0.062466346 -0.01393852 -0.024067504 0.061753053 0.076861486 0.024712147 0.052182537 -0.05806846
-0.05380311 -0.00046182802 -0.054683354 -0.062484838 0.049988423 0.064240254 -0.06476822 -0.056644376
0.0032549694 -0.061784957 0.0053826915 0.028413517 0.001073747 -0.036852654 0.08170094 -0.004063994
-0.01844789 -0.0029628123 0.04410675 0.025432115 0.05151624 -0.034541972 0.026368693 0.04414226
0.03335155 0.0026086685 -0.047104184 -0.0029904747 -0.039775193 -0.012580752 0.092692286 0.01906752
0.08901435 -0.0027639202 0.038021035 -0.056840576 0.0033144609 -0.030989714 0.0658224 0.059013207
00000000: 1920 343c 83c1 a7bb b5d5 0ebd 2773 403d
00000010: fa28 2bbd 977c fc3c c678 b2bd 45b8 953b
00000020: e8a4 09bd 4851 3a3c e043 803d 2896 c93c
00000030: ee88 d5bc bc60 1a3d f1ea a43d efcb 01bd
00000040: 8416 263c 93f4 30bd c702 8d3d ff0b 10bc
00000050: 806d 913d a7a8 babc 73de 75bd eed1 7e3c
00000060: 626d 89bc e9f2 47bd b0d0 99bc 59b8 16bd
00000070: e98a e1bc 6901 833d 996c ebbc 64b9 943b
00000080: 99b6 593d 89a7 a43d a77a 95bc 5cd6 613d
00000090: 884b aabc 8d9a 223b af70 43bd 4c80 c2bc
000000a0: c161 103c f9c5 2abd 79c6 1e3d 4758 ddbc
000000b0: 09bc 21bd 850d c4bc 45ed 493d f0ec 593d
000000c0: 3e24 5bbd cff2 113c 99eb 923d 4e51 db3c
000000d0: b163 e73c b5e8 e4bc bca8 b7bc 62f2 babc
000000e0: d3ba 24bd 42d6 693c 4765 dcbc 8fce 5d3c
000000f0: 2d64 9f3d a2e0 163d eda8 79bd 2a4a c13c
00000100: 5504 f53c f7e9 74bd 1840 9a3d ee20 43bc
00000110: aab8 52bd 2d40 78ba 6e67 353d 22dd 09bd
00000120: 89ad 88bd 5809 2abc 374d 3b3c 89c0 3dbd
00000130: 5a36 ed3c f14f 2cbc b6d5 283d cac6 03bd
00000140: 2e50 223c e301 a33d ca0a 053d 6ae4 c43d
00000150: 0e90 71bd 4b91 843c 193f 5cbd e733 72bd
00000160: d05d a63a b281 00bd 8cd2 72bd 6606 93bd
00000170: 054d f3bc aa9b f3bb 41d3 7abc ef8f 13bd
00000180: 8a63 96bc b466 443d ddac 1cbd e115 4cbd
00000190: c5f7 bdbd 6889 9f3d 4b3b 113d 437a 8d3c
000001a0: 120d d2bb adda 9a3d b418 d03b d602 2cbd
000001b0: bd54 ff3d 4854 8e3d bcde 193d 4a84 3b3c
000001c0: 8a13 b73b f98a 183d 0322 473d 6e63 be3c
000001d0: 8216 b43c 4e6f 27bb e1e6 523d 4c67 3abd
000001e0: b3a4 b7bc d624 61bd 7c92 d13c c0cc aa3c
000001f0: c258 1a3d b8f6 ed3c 4980 973d 8472 283d
00000200: 048b 88bc 4400 b63d 512f 8f3d 80ca 983d
00000210: 3fdd 873d 3be4 88bc 3953 c2bc ec71 1f3b
00000220: 4d54 cebc 694f 7a3d e70a 943d 4333 aebc
00000230: 196c ea3b 0380 91bd ff08 88bc 2095 82bd
00000240: 2a12 4c3d 9c4a ce3c 7bb9 33bd 127b 16bd
00000250: 7578 0cbd 0657 8f3c 54ac ff3b 25d4 1cbd
00000260: e943 623d 74ed 3bbd fdb3 363d 539a d6bb
00000270: c4fd 8ebd 5e12 533c b4ac 0fbd 2824 11bc
00000280: dad5 79bc 5f4a 2ebd 3e36 6dbd 6c47 7abb
00000290: b911 403d e027 223d 6962 f83c dfef 263c
000002a0: c1bc 903d a78c d73c 221f 613d 6613 873d
000002b0: 6d93 4c3c faf3 413d 3f79 67bd 8bd6 c8bc
000002c0: 5214 023d 94c0 8cbc 1ad1 1abd f383 27bd
000002d0: a255 8b3d 48c5 973d 04fa 19bd 9995 bd3c
000002e0: 4b59 21bb 4199 e73c f7b2 13bd dbcc 79bd
000002f0: f129 cc3c 39de e8bc 4de7 ecbb 1401 0ebd
00000300: 1414 883d 0e95 65bd 1ab1 f93d b448 97bd
00000310: ff6d 3fbd 6e34 bd3c a7fc dd3d 2e04 473d
00000320: ad15 2bbc 4499 243d 6c5a 703d e8d0 643d
00000330: c0a3 a83c 365f b03b 6047 f33b 0733 01bd
00000340: b6dc 7fbd 645e 64bc 3729 c5bc c5f0 7c3d
00000350: 8e69 9d3d 2171 ca3c 5bbd 553d 32d9 6dbd
00000360: a660 5cbd 8221 f2b9 a7fb 5fbd 1af0 7fbd
00000370: a9c0 4c3d 6590 833d 33a5 84bd ef03 68bd
00000380: 5351 553b 3912 7dbd 4a61 b03b 77c3 e83c
00000390: f8bc 8c3a cff2 16bd d352 a73d 412b 85bb
000003a0: 0820 97bc be2b 42bb 48a9 343d 0357 d03c
000003b0: b102 533d e27b 0dbd 2803 d83c 84ce 343d
000003c0: a39b 083d 32f6 2a3b 51f0 40bd d7fb 43bb
000003d0: 50eb 22bd 801f 4ebc 74d5 bd3d 7d33 9c3c
000003e0: 284d b63d e322 35bb f2bb 1b3d aad1 68bd
000003f0: 6d37 593b 24de fdbc e5cd 863d d5b7 713d

fc2.bias f4 [90]
0.011084255 0.007890329 0.010773083 -0.007066466 -0.029488467 0.047357984 -0.0027701666 0.017614543
0.034803305 0.033654526 -0.087602705 -0.036223195 0.034092024 -0.0742859 0.0034115077 0.0903607
0.05365577 0.026006283 -0.021686394 0.030362103 -0.03137297 -0.0066782795 0.037576817 -0.073415995
0.020973401 -0.065726966 0.020208666 -0.0039287577 -0.03398789 0.06780374 -0.06042668 -0.027072683
0.049199544 -0.06919564 -0.029281035 -0.010307888 -0.059408307 -0.0015200197 -0.064737126 -0.026808245
0.015605167 0.08473332 -0.011760075 -0.027204448 -0.05259867 0.014715897 -0.077376395 -0.0053475853
-0.024693914 -0.10578897 -0.047606893 0.017614117 0.058054317 0.001695161 -0.042134825 -0.00696026
-0.017766098 0.0015093175 0.04640171 0.08364001 -0.04773973 -0.0061076498 0.032674808 0.020715903
0.034141187 -0.015876358 -0.034919664 -0.0018529068 0.029703962 -0.029686833 0.026750123 -0.012267863
-0.018264562 0.053526625 0.050350245 0.03864701 -0.047556896 -0.00935248 -0.059061524 0.04138354
-0.025854602 -0.05231618 -0.030516798 -0.03767055 0.04748368 0.031941198 0.05824949 -0.07768718
0.019514984 0.018445428
00000000: bc9a 353c 7046 013c 9681 303c d08d e7bb
00000010: cc91 f1bc 72fa 413d af8b 35bb 604c 903c
00000020: e98d 0e3d 54d9 093d 0c69 b3bd c65e 14bd
00000030: 14a4 0b3d 3523 98bd 9a93 5f3b 080f b93d
00000040: 27c6 5b3d 210b d53c aaa7 b1bc f2b9 f83c
00000050: f280 00bd 78d5 dabb 26ea 193d 205b 96bd
00000060: 69d0 ab3c dc9b 86bd a58c a53c cfbc 80bb
00000070: e336 0bbd b0dc 8a3d f781 77bd 88c7 ddbc
00000080: 7685 493d 72b6 8dbd c8de efbc 6ae2 28bc
00000090: 2056 73bd 663b c7ba e694 84bd f79c dbbc
000000a0: d0ac 7f3c aa88 ad3d 54ad 40bc dddb debc
000000b0: b471 57bd f21a 713c 8477 9ebd cc3a afbb
000000c0: e44a cabc e3a7 d8bd 72ff 42bd 7b4b 903c
000000d0: 5dca 6d3d 2a30 de3a 9195 2cbd e512 e4bb
000000e0: 358a 91bc 4bd4 c53a b80f 3e3d 744b ab3d
000000f0: bc8a 43bd ae22 c8bb 05d6 053d 66b4 a93c
00000100: a1d7 0b3d 230f 82bc ec07 0fbd 3cdd f2ba
00000110: b955 f33c cd31 f3bc 1323 db3c 26ff 48bc
00000120: 909f 95bc bc3e 5b3d 0f3c 4e3d 544c 1e3d
00000130: 05cb 42bd 253b 19bc 7fea 71bd c981 293d
00000140: 08cd d3bc 7e49 56bd 5dfe f9bc 6f4c 1abd
00000150: 3f7e 423d c6d4 023d 0497 6e3d 751a 9fbd
00000160: e3dd 9f3c de1a 973c

fc3.weight f4 [1, 90]
0.04583473 0.12925647 0.031684183 -0.16217698 0.01171497 0.007900832 0.033883683 0.024770886
-0.031386677 -0.045755513 0.46830463 0.11037761 -0.1355102 -0.14281821 -0.28228316 -0.63138694
-0.032327462 -0.024822578 0.00047482795 0.03897603 0.15152873 0.002352786 0.036307484 0.05078778
-0.07100142 0.024670176 0.017564679 -0.13401732 0.020810753 -0.06591209 0.012826081 0.14201543
-0.02797549 0.17653686 -0.08211197 0.030416531 0.13415337 -0.08989673 0.049192082 -0.056144886
-0.026551748 -0.10438902 -0.060936254 -0.4602964 0.019098898 -0.21144958 0.06130187 -0.0751462
-0.24940091 0.6208067 0.10106584 -0.01567801 -0.0054101213 -0.12836866 -0.05034498 -0.022243768
-0.004172257 0.0029178974 -0.023161115 0.4510126 0.113227904 0.030470056 -0.08887767 -0.14157242
-0.09392646 0.0661633 -0.038087025 0.1848589 -0.10128594 -0.067033514 0.5033063 -0.051606122
-0.019437376 0.018434463 -0.06366871 0.14314987 0.071122944 -0.10741719 0.048852168 0.038197424
-0.042762678 0.21120514 0.0047409856 -0.0009384761 0.0777451 0.009086991 0.07082251 0.13770552
-0.02352407 0.07101479
00000000: 33bd 3b3d cf5b 043e 46c7 013d b911 26be
00000010: 25f0 3f3c 7e72 013c 9ec9 0a3d 50ec ca3c
00000020: 518f 00bd 226a 3bbd a0c5 ef3e a80d e23d
00000030: 30c3 0abe f03e 12be 6b87 90be 93a2 21bf
00000040: cd69 04bd b858 cbbc 54f2 f839 54a5 1f3d
00000050: 592a 1b3e 3331 1a3b 28b7 143d d906 503d
00000060: 3169 91bd 1c19 ca3c cde3 8f3c d63b 09be
00000070: 507b aa3c ebfc 86bd 7c24 523c 7e6c 113e
00000080: db2c e5bc 14c6 343e 522a a8bd 172c f93c
00000090: 805f 093e c71b b8bd a37d 493d 2ef8 65bd
000000a0: 0d83 d9bc e9c9 d5bd 4b98 79bd f8ab ebbe
000000b0: 4b75 9c3c 3d86 58be ab17 7b3d 40e6 99bd
000000c0: f462 7fbe 30ed 1e3f 9bfb ce3d 2c6f 80bc
000000d0: 6347 b1bb 1373 03be 8a36 4ebd 9038 b6bc
000000e0: 6eb7 88bb 323a 3f3b 61bc bdbc 20eb e63e
000000f0: 08e4 e73d 579c f93c 7f05 b6bd 5cf8 10be
00000100: 845c c0bd a080 873d 2401 1cbd a74b 3d3e
00000110: 016f cfbd de48 89bd afd8 003f f160 53bd
00000120: 223b 9fbc df03 973c be64 82bd e195 123e
00000130: e8a8 913d 8bfd dbbd 3619 483d e774 1c3d
00000140: eb27 2fbd 2946 583e 455a 9b3b 1104 76ba
00000150: d338 9f3d 9ae1 143c 640b 913d ad02 0d3e
00000160: 8db5 c0bc 3470 913d
